fnn/fnn_model_weights.pth (torch, 215603 bytes, 8 tensors)

fc1.weight f4 [128, 24]
00000000: 385b 313e 220f 3f3d acc0 033e 531f 24be
00000010: 0f7d 09be d360 d5bd d8c4 13be caa7 563d
00000020: fb01 743e 09bd e9bc d2bc 3b3e d4b7 bfbd
00000030: 3307 0fbe 8fc7 9f3d 03b2 213c da76 23be
00000040: 20c0 aa3c 372c b93d 09ee 5b3e 0694 1e3c
00000050: 5ded 9a3d 6e06 ffbb 8272 b7bd 6ff2 4cbe
00000060: 1616 84be 3133 42be 0a70 47bd be68 f53c
00000070: 4330 3d3e e92a 5d3e 2fa2 d53b 1346 10be
00000080: 0f65 82bd a0f5 b5bb 6d92 d63d d0c0 433e
00000090: f095 1ebe 07bc 57be ee61 83be 02f5 16be
000000a0: 9118 99bc 2d80 393e da70 203e a10a 82bd
000000b0: 9436 51be ab33 743e c381 b03c ee92 0dbe
000000c0: d47b 3c3e 08e7 edbd 5671 30be c0b8 e2bd
000000d0: 316e 593e 9c4a 093d 8b8e 51bd 371b 173e
000000e0: ede1 853e e949 79bd 26f3 2d3e 3d87 3f3e
000000f0: bdd0 81be f652 34be 55c8 66be 4c6f d23d
00000100: a31a 943d f2b0 043e 5116 963d f52c a03d
00000110: a02a 9d3e e2fd 28bc 1190 4c3e 5a71 47bd
00000120: dd63 54be 607b 74bd 61cb 1f3e 39f6 433d
00000130: 70b7 343e a6dc 873d 0e74 74bd 101b 15be
00000140: 5b91 99bd 5519 38be 9d1c 2d3e 84a6 1b3e
00000150: 9d3e 133e 2243 ffbb 1790 26bb c182 f73d
00000160: 0e42 b73d 0e79 8fbd b2d6 a73d dd4b 433e
00000170: c57e 19be c63b a8bc 35e4 143e 385b 123e
00000180: 28bc 36be 8f66 f23b a6fb d03d e5f6 3d3e
00000190: d570 073e de3a 513e 200c e4bd c82a 38be
000001a0: da23 2e3c 8fd6 bf3d df7a 98be a548 91bd
000001b0: a067 60be e9e1 77be 46d9 673d d223 cd3d
000001c0: 2241 3e3d 8cb0 06be df45 bebd c516 4b3e
000001d0: 1dea 07be 6c78 13be dbf8 803e 0cb7 3f3e
000001e0: 6086 5cbe 2f05 18be da36 98bd 7d1d 71be
000001f0: fc6f 6d3b d485 9cbe 390e 183e 38e3 d1bd
00000200: ac68 94be 74ab 6fbe 4ee6 94be 9b1d 2f3e
00000210: 3ba4 553e 0ed0 8bbc 795c 883d 4d05 2ebe
00000220: 8180 433e ea34 fdbd 4d96 81be 22c3 6cbe
00000230: 4f9a 66be afd6 5e3d 8dd9 49be 7d2a f9bd
00000240: c634 a43d f939 c8bd 6000 553e 97a1 e6bd
00000250: ebd7 673e 0a9f 8b3e 0137 413d ba2b 903d
00000260: 8ac0 733e ea35 833c df6a f73d ff9c 09bd
00000270: f2f6 6bbe 5dd6 01bd 95c9 7bbe 2f5a cb3d
00000280: 3fc3 edbd d54c 81bc 7414 5a3e e91d 4b3e
00000290: 76ca 193e bbca 56be 1162 123e 3862 303e
000002a0: 32db 893d 4451 3c3e 025d 52bd aea6 15be
000002b0: 97ac 04be 3107 2e3e 202b 623d cf22 9f3d
000002c0: 9e76 a4bd 37f2 20bd 8943 4d3d 1e75 063e
000002d0: 8e3e 8a3c d26d 39be f7a5 14be 23c3 1d3e
000002e0: 988b 403d f00e 7a3e 89bc 52be b24d 87be
000002f0: e031 ec3d d42a 063e 9d4b 993b 2adf 3c3e
00000300: a928 343e 8925 c43d 4512 783e 6b9a aebd
00000310: 24e2 5b3e 0e5c f63d fe19 50be 9a9f ad3d
00000320: 93ea be3d 74ab 8b3d ba0c 473e 18d9 8fbd
00000330: 7c2f 10bd d757 8cbc 8d88 d73c 2099 22bd
00000340: f39a a43d 9cdc 853d cc49 1bbe b5a4 0dbe
00000350: aefd 50be 2f38 f43d 79bb 0a3e 18ca c63d
00000360: 0b23 9cbc bf5a 68bd f853 fdbd 3434 77bd
00000370: 6c45 88be 2869 82be bf5b 36be bf2b 193d
00000380: 56fb 55be 1db2 48be 9a07 78be 6e24 e73d
00000390: 490f d23b 065a dbbd 1af2 3a3e 50cc f4bd
000003a0: 6d2d 15be 08b2 61be 7ec7 b0bc 77c6 133e
000003b0: 0011 07be fbe0 27bd d8a3 e7bd 65d3 49be
000003c0: 428c 14be 3f51 d9bd d2a0 cf3d 2606 833d
000003d0: e5f2 11be e5f7 5f3b cbb9 64bd 9a37 7f3e
000003e0: f04c 843e fb07 313e 5a2c 1f3e fef2 8a3d
000003f0: 2a48 5ebe cb6c f3bd 9687 c73d 6b57 51be
0.17319953 0.04664529 0.12866467 -0.16027574 -0.13426612 -0.104188584 -0.14430559 0.05240611
0.2382888 -0.028532522 0.18333748 -0.09361234 -0.1396759 0.07801735 0.009869101 -0.15963307
0.020843565 0.090416364 0.21477522 0.009678846 0.07564805 -0.007782749 -0.089573875 -0.20014356
-0.257981 -0.1896484 -0.048690833 0.029957172 0.18475442 0.215984 0.006519578 -0.14089231
-0.06366932 -0.0055529624 0.10477147 0.19116521 -0.15486884 -0.2106782 -0.25660652 -0.147419
-0.018688472 0.18115301 0.1566805 -0.063496836 -0.20430976 0.23847835 0.02154625 -0.1382558
0.18406612 -0.11616331 -0.17230734 -0.110703945 0.21233441 0.03351842 -0.05116133 0.14756475
0.2614893 -0.0608615 0.16987285 0.18703933 -0.25354567 -0.17609772 -0.22537358 0.102751344
0.07231643 0.12958124 0.07328475 0.07821075 0.30696583 -0.010314437 0.19976832 -0.048692085
-0.2074122 -0.059687972 0.15604927 0.047842238 0.17648101 0.06633882 -0.05968099 -0.14561105
-0.074984275 -0.17978413 0.16905446 0.1520024 0.14379354 -0.0077899853 -0.0025415474 0.12085486
0.08948146 -0.07005511 0.08195247 0.19071908 -0.14989765 -0.020536315 0.14540179 0.1429261
-0.17845213 0.00739748 0.10204248 0.18551214 0.13226636 0.20432612 -0.11135125 -0.1798507
0.010628665 0.09367096 -0.29781243 -0.07093934 -0.2191453 -0.24207272 0.056603692 0.10016598
0.046448834 -0.13153285 -0.092906706 0.19832905 -0.13272901 -0.14401406 0.25189862 0.1872217
-0.21535635 -0.14845727 -0.07432337 -0.23546405 0.0036230078 -0.30570853 0.14849176 -0.10248417
-0.28986108 -0.23405248 -0.2908196 0.17101137 0.2086343 -0.017066982 0.06658263 -0.1699421
0.19091989 -0.12363608 -0.25309983 -0.23121312 -0.22519802 0.054403957 -0.19711895 -0.12166307
0.08017878 -0.097766824 0.20800924 -0.112612896 0.2264096 0.27269775 0.047171596 0.0703959
0.23803917 0.01601692 0.12080931 -0.03359699 -0.23043421 -0.031698573 -0.24588616 0.099293105
-0.11609506 -0.015783707 0.21296865 0.19835629 0.15018639 -0.20975773 0.14295222 0.17224967
0.06731261 0.18390375 -0.05135823 -0.14614365 -0.12956463 0.16994931 0.05521691 0.07770311
-0.08030437 -0.039293494 0.050113235 0.13130614 0.016875532 -0.181083 -0.14516436 0.1540647
0.047008127 0.2441976 -0.20579733 -0.26426464 0.115329504 0.13102275 0.0046782033 0.18444505
0.17593636 0.09577472 0.2422572 -0.08525547 0.21472985 0.12029277 -0.20322415 0.08477707
0.09322085 0.068198115 0.19438449 -0.07023829 -0.035201535 -0.017131729 0.02631023 -0.039696813
0.08037367 0.065362185 -0.1516487 -0.13832362 -0.20409271 0.11924779 0.13548078 0.09706515
-0.019059679 -0.056727167 -0.123695314 -0.06035252 -0.26615465 -0.25470853 -0.17808436 0.037395235
-0.20896658 -0.19599195 -0.2422165 0.11286245 0.0064105135 -0.1071053 0.18256417 -0.11953032
-0.1456811 -0.2204057 -0.0215795 0.14431177 -0.13190079 -0.040986042 -0.113105476 -0.19709547
-0.14506629 -0.106111996 0.10138096 0.06397657 -0.14252813 0.0034174856 -0.05584125 0.24923554
0.2583995 0.172882 0.15544263 0.06784628 -0.21707216 -0.11885985 0.09742658 -0.20443504

fc1.bias f4 [128]
00000000: fbb6 66bd 756a 8f3e 4616 933d 046e 0b3e
00000010: eab2 0d3e 5183 d53d a795 883e 36a0 cabd
00000020: 84c2 5a3e 0399 3d3c 9a59 083e a033 c7bd
00000030: fb45 4c3e 0ebc 32bc 9eaa f9bd f4d9 2b3e
00000040: c7a3 3a3e 4de3 8abc acd9 babd a421 913e
00000050: 4d7d ed3d 771d b93d 10fe 8dbb 4ff8 9d3d
00000060: 120a 223e 3156 c3bc 1b8c 03be 08a3 213e
00000070: 92bb 87bc ef42 f13d 6f80 933d fcc3 6d3d
00000080: d3b8 143c 4af7 803e 3d4c 173e 6cfb 823e
00000090: 0e4b 263d f58e 3abe e721 393e 8475 0f3e
000000a0: b4d3 c83d 88ba 5fbe e881 d03d 2fb1 683e
000000b0: c0df 373e 5d28 22be 687a f73d 4ba9 1d3e
000000c0: 18c7 1a3e b9f5 003e 5650 54bd f421 37bd
000000d0: 9d42 0fbe 4467 623d 8f2f 833e bea1 cdbd
000000e0: 6885 c03d 4c63 3c3e 7635 773d c8a2 8b3e
000000f0: fd8c 263e f4f4 973d 8008 843e a8f7 6d3e
00000100: c095 1fbe 6498 183d f4e7 b6bd 4391 c43d
00000110: 35f4 343e 7ab3 e9bd 3e2c b13d 3cc3 c7bd
00000120: 12a1 4e3b 4aa2 d6bd 2763 33be 1203 0b3e
00000130: 8242 b5bc 8b69 f2bc feac ef3d 3f68 48be
00000140: 1dca 203d 36fe 3dba e8ca e93d 6daa 033e
00000150: c3fe 043e 6a08 4dbe f3e7 76bd f30e c7bc
00000160: b280 3f3d 07ef 50bd 8177 0fbd 9b00 07be
00000170: 68a5 f03d 4e55 423e d828 443d 2691 eb3d
00000180: c39f 0f3e afa9 423b 9d56 143e ea0e 493d
00000190: e7dc 9cbc 1f2c 5ebc c8cc afbd 8b4f 2a3e
000001a0: a215 48bc 84bb bd3d c657 d13c cdcc 7a3e
000001b0: ac64 bd3d 9d50 333e c9eb 01be bb08 b3bd
000001c0: 3b61 a93b 1f1b 863e a3c6 933d a7f4 7b3e
000001d0: 1f6e 85bd 3ba3 24bd cb22 08be 1a06 cf3d
000001e0: 3008 2cbd 2f99 c23d 4a06 a9bd abfb 08be
000001f0: 13bd d83d e168 e2bd a5b4 513e 6422 27be
-0.056326848 0.28010908 0.07181983 0.13616186 0.13837782 0.10425437 0.26676676 -0.09893839
0.21363264 0.011572125 0.1331543 -0.097266436 0.1994857 -0.010909094 -0.12190746 0.16782361
0.18226539 -0.016954089 -0.09123549 0.28345978 0.11596165 0.09038823 -0.004333265 0.07713377
0.15824154 -0.02384481 -0.12846415 0.15784848 -0.016568933 0.11780345 0.07202231 0.058048233
0.009077269 0.25188667 0.14775176 0.25582445 0.04059892 -0.18218596 0.18079339 0.14009672
0.09806004 -0.218485 0.10181028 0.2272384 0.17956448 -0.1583571 0.12083894 0.15396611
0.1511501 0.12593736 -0.051834427 -0.044710115 -0.13990255 0.055274263 0.25622222 -0.100406155
0.09400445 0.18397254 0.06035372 0.2727263 0.1626472 0.07419768 0.25787735 0.23239005
-0.15584469 0.037254706 -0.0893096 0.09598019 0.17671283 -0.114111856 0.08651017 -0.09754035
0.003152911 -0.10480173 -0.17518292 0.1357539 -0.02212644 -0.029591342 0.117029175 -0.19571017
0.03925525 -0.0007247658 0.114156544 0.12857981 0.12987809 -0.20022741 -0.060279798 -0.02429912
0.046753593 -0.051009204 -0.035026077 -0.13183825 0.11750299 0.18977854 0.047890514 0.11502294
0.14025788 0.002970319 0.14486165 0.04908649 -0.019148303 -0.013560324 -0.08583981 0.16631906
-0.012212189 0.092642814 0.025554549 0.24492188 0.09247717 0.1751122 -0.12687601 -0.087418996
0.0051690615 0.26192567 0.07215621 0.24605046 -0.065151446 -0.04019473 -0.13294522 0.10108586
-0.041999996 0.09501874 -0.08253153 -0.13377254 0.10582938 -0.1105516 0.20479067 -0.16321713

fc2.weight f4 [256, 128]
00000000: 317b 8f3c f4e3 983d 9c6e eb3d a208 0fbc
00000010: f30e 873c 2aaf 9f3d fe0b 91bd 4fac 00be
00000020: 4294 64bd 08c8 3f3c 61f8 94bc 2678 6bbd
00000030: 8ebf 9dbc 2d0c abbd fede 723d e809 313e
00000040: 5fc1 b83d 1f98 96bc 1ceb 803d ba4d 3c3d
00000050: 0d20 1c3d 8f42 bbba ed10 983b 8b30 a63d
00000060: 8547 16be 4329 14be f055 353d 86f7 7dbc
00000070: 8bf1 153c 41b9 d3bb bba7 993d ee87 6e3c
00000080: 502f 89bd 4ac1 6f3c ea91 cf3d 0d95 f2bd
00000090: 9d24 31bd 7db3 57bc 127e e43d 6501 68bd
000000a0: 64e1 d13d a2b0 9a3d 7ca2 b5bc afdd ec3d
000000b0: a765 843d 7138 1c3d dfaa a5bd 9315 c6bc
000000c0: 0def d3bc eef5 6b3d 254c 023d b47f f93d
000000d0: 7dd3 513d d3ce 613d 4ebc 073e f2a8 e33c
000000e0: ef9f 82bc a093 69bc 60ff 08bc 71bc a9bd
000000f0: 1287 c63c 1c89 523c 2cdf d63d 6348 273e
00000100: 4d41 c23d a12b 2bbd c52a 6a3d 3828 60bd
00000110: 2f0e 8b38 a253 b73d b34b 103d f723 14bb
00000120: 4528 153d 4770 273c 5bd5 a7bd 3590 bc3d
00000130: ccac 243d 0ed9 c2bc 54eb 993c 7d7b 2fbd
00000140: 7d02 e9bd 8dc6 f63b 7c3f a9bb 895b 9abd
00000150: 3970 6c3d 54f3 713d 0205 053d 07e3 17bd
00000160: 05c0 cabd 745e 753d 9247 813c 2f05 c83d
00000170: d364 67bc 83bf b43d 299a abbd 0d7a eebc
00000180: 498c 683d 2f6c 89bd 35ef ee3b 197a ed3a
00000190: efad a43d 216c c33d d77d 9fbc 6666 c13d
000001a0: 713e 36bc 0e3e 4fbb 94db 8c3d fade bc3d
000001b0: 75a4 853d 3bc8 ce3c 53ba af3d b618 7abd
000001c0: 805f 92bd 76c4 bf3d 02ee 8d3d a8f4 1cbd
000001d0: 37d9 89bd 6d89 613d 7d96 cdbd 98e1 5e3c
000001e0: 12e8 473d 0655 153e a65c 86bd 97a1 e4bc
000001f0: bbb7 843d e2a1 333a 1c11 383d 1bdf 6abd
00000200: 6905 04bd 6cf6 fa3d 0c23 ab3d d046 473d
00000210: 1f7d 573b b6aa 123d 9dfe da3d 84f1 8aba
00000220: bac1 6f3d c393 bdbc fe7d f73d dab1 173d
00000230: fe3f 473d ca41 2f3d 762b 75bd 1446 db3d
00000240: db30 703d 2a1e 31bd 0ee7 1bbc 0cac 3a3d
00000250: 462d e63b 2779 b33d ef8d 893a 5466 bdbd
00000260: cdd9 013d 2338 9dbd a96f 413d 153c d53d
00000270: ae53 19bc 5b15 a13d cc55 36be 6774 d93d
00000280: 92c1 3a3d df94 4cbc 8475 c5bd 6639 a13d
00000290: c235 c2bc f760 e0bd 8f34 aa3d a22b 203d
000002a0: f7c0 b6bd 573b 45bd 55a8 dbbc 6494 a1bd
000002b0: fa86 3d3e fa6a f83c 566a cfbc 2e33 483d
000002c0: c8fb e8bd 35c1 7e3c 8954 29be 5aa6 e7bd
000002d0: 783f d33d 231e 343c 622b 44bc 199c c13d
000002e0: edba e7bd 4b40 4d3d ee58 cdbd 92f3 333c
000002f0: 5bd5 423b 67cf cbbd 5738 b83c bba2 bebc
00000300: cb3c cdbb d94e eebd d2ee 33bd 64b1 0f3e
00000310: 87fd 56bd 1c33 873d b4b8 b9ba 0088 623c
00000320: 39b9 3b3d 5418 9a3d ee9d 643d d525 883d
00000330: 01d9 343d 95d7 9ebd 361d 8fbb bd63 0fbe
00000340: 8794 5bbc d9f3 87ba 7074 a73d 534f aebd
00000350: 4b07 8e3d d4d6 6b3d 890a cabd 24a3 563d
00000360: f86c 263d 7950 c3bb 4784 1abd c1f1 4ebd
00000370: 7f3e e53c b76c 193d 3e0d c2bb 70f2 0c3c
00000380: 7fa8 9abd 8f65 1abe 8aba af3c 8be1 abbd
00000390: eac4 85bd 2a14 0c3d 94e9 e5bd 98c4 163e
000003a0: 4e9a 943c f4af e83d 3b9a 803b fd1b a6bd
000003b0: b28a 223d 8ba5 d83d 56ca ac3d cdee 8a3d
000003c0: b1b0 573d d9a7 543d 87a6 b23d 10a8 ba3d
000003d0: 3bef 49bb 1434 933c 572a 7d3a c292 9f3d
000003e0: 1a71 af3d 1236 6eba 86ef 4e3d 837c 603c
000003f0: a133 5bbd 399c 12be 0912 fa3d afd9 e3bc
0.017514797 0.074653536 0.114957064 -0.008730086 0.01648662 0.07797082 -0.070823655 -0.1256573
-0.055805452 0.011705406 -0.018184843 -0.05748763 -0.01925638 -0.08351932 0.059294693 0.17288935
0.090212576 -0.018383084 0.062948436 0.045972563 0.038116504 -0.0014286804 0.0046406896 0.081147276
-0.1467572 -0.14468865 0.04427141 -0.015500909 0.009151827 -0.006461293 0.07502695 0.014558775
-0.06698477 0.014633486 0.10135253 -0.118448354 -0.043247808 -0.013165352 0.111568585 -0.056641955
0.10248068 0.07553221 -0.022172205 0.1156572 0.06464701 0.038139764 -0.08089232 -0.02418021
-0.025870824 0.057607584 0.0318109 0.121825606 0.05122708 0.055128884 0.13255426 0.02779052
-0.015945403 -0.014256388 -0.008361667 -0.082878955 0.024234328 0.012850072 0.104917854 0.16336207
0.094851114 -0.041789655 0.057169694 -0.054725856 6.6306784e-05 0.089514986 0.035228442 -0.0022604445
0.036415357 0.01021964 -0.08194991 0.09207193 0.040203854 -0.02378514 0.018788971 -0.042842377
-0.11377428 0.0075309933 -0.0051650386 -0.0753699 0.05772421 0.059069946 0.03247548 -0.037081745
-0.09899906 0.05990453 0.015781198 0.09766614 -0.014123159 0.088255905 -0.08379013 -0.029110933
0.05677441 -0.067100875 0.0072916993 0.0018118053 0.08040988 0.09542108 -0.019469185 0.09443359
-0.011123286 -0.003162268 0.06877819 0.09222217 0.06525508 0.025241962 0.085804604 -0.061058722
-0.071471214 0.09363644 0.06930162 -0.03831926 -0.067308836 0.0550627 -0.10038469 0.01360359
0.048805304 0.14583215 -0.0656064 -0.027909083 0.06480356 0.00068524305 0.04493819 -0.057341676
-0.032231722 0.122540325 0.08356294 0.048651516 0.0032880974 0.035807334 0.10693095 -0.0010600542
0.05853436 -0.023141747 0.12084578 0.037034847 0.048645012 0.04278735 -0.0598559 0.10706726
0.058640342 -0.043241657 -0.009515537 0.045574233 0.00702444 0.08763342 0.001049457 -0.09248033
0.03170185 -0.07676723 0.047225628 0.1041185 -0.00935833 0.07865401 -0.17806166 0.10617905
0.04559476 -0.0124866655 -0.09641555 0.07872276 -0.023707274 -0.109559946 0.08310806 0.03910411
-0.08923524 -0.048152294 -0.026813665 -0.078896314 0.1850852 0.030324448 -0.02531926 0.048876934
-0.113761485 0.015548994 -0.16536154 -0.11311026 0.1031484 0.010993513 -0.011973234 0.094536014
-0.1131495 0.050110143 -0.100267276 0.010983365 0.002972922 -0.09951668 0.022487802 -0.023270955
-0.0062633506 -0.11636133 -0.04392893 0.14032513 -0.052487876 0.06601545 -0.0014169426 0.01382637
0.04583094 0.075241715 0.055814676 0.06647841 0.044152264 -0.07755963 -0.004367496 -0.14002891
-0.013402111 -0.0010372355 0.081765056 -0.08511224 0.06934985 0.057577923 -0.09865291 0.052401677
0.040631264 -0.005960521 -0.037723806 -0.050523523 0.027983902 0.037457194 -0.0059219887 0.0086027235
-0.07551669 -0.15077804 0.021451253 -0.08392628 -0.06531699 0.034198917 -0.11226192 0.14723432
0.018139984 0.113616854 0.0039246357 -0.08110807 0.03968305 0.1057845 0.0843703 0.06783829
0.05265874 0.051917884 0.08723169 0.09114087 -0.0030812758 0.017969169 0.0009657493 0.07791664
0.08566494 -0.00090870366 0.050521396 0.013701561 -0.053516034 -0.14317407 0.12210471 -0.02781376

fc2.bias f4 [256]
00000000: f395 bf3d 9c93 953d 1a16 ef3c 7dc3 f93d
00000010: 12e2 073e 7c62 6abd c1ee aabc 15a8 98bd
00000020: c1b1 b73c 101e 323d 2af0 4bbd 6ecf 0e3e
00000030: 4fc2 a7bd 8543 aa3c afad 4b3d 153a 0bbd
00000040: 75b9 b83c 73e8 9d3c fa32 523d fa40 b93d
00000050: fae8 073d 7e2b 143b ff3b 9abc db82 ce39
00000060: fbf7 dd3c 1b52 68bd 62c7 9c3d 48a3 f03d
00000070: cc82 ac3d a340 85bc 9268 54bc 4ed4 8dbc
00000080: c1e8 ec3c 8c44 b93d 75f6 9e3d 7ac2 d23d
00000090: ebd4 11bc daca 043d a739 063e da6f a8bc
000000a0: 5e8e a53d 308c 023e 50ac a0bc 4c7f f03d
000000b0: bef5 e53d cc3a d1bc 5da7 5d3d f8df e23d
000000c0: 002d 003e 51c3 dabc 30ee 43bd 343a 873b
000000d0: b72e 1ebd 6535 1dbd a6db d1bc 01a6 893b
000000e0: 80a4 983d 5092 83bd 87b3 cc3d 2ec5 20bd
000000f0: 03a5 4c3d faf1 21bd a8cb 1a3d 8fdc 18bd
00000100: 5621 82bc 608e 893d 339e c83d 4731 e6bc
00000110: 026b d03d be47 ab3d 17d1 5dbd 59de 103e
00000120: 2c0c 603c ceae 18bd 4c08 95bd d9d4 24bd
00000130: 6e8f ff3d 387c 853c fd29 aabd 4c8f 9ebd
00000140: 58f5 ae3b 10a0 48bc 0b86 013e d7d8 27bd
00000150: db9a c63d ba04 d33d 876d 103d 2d26 b23d
00000160: 2b6c 4a3d 0004 703c e50f d63d 0aeb c1bb
00000170: 10f5 f03d 41e0 8a3d d2ea e13d 7e8b 083b
00000180: d95c 533d 6ff4 99bd ec0f 603c 094b 753d
00000190: 2f56 3fbd ab3e 903d 1e43 8c3b 4a96 c13c
000001a0: 093c 903d d4fa 723d 7a7e c6bc 118e 843c
000001b0: bfcd 4aba 479f 803d 8a30 42ba 4953 55bc
000001c0: 80bb fa3b e7fd 0fbc b673 8d3c 4340 d53d
000001d0: 3980 96bd 9f7d 543d f5ed 5ebc 87da a03b
000001e0: f8b9 5abd ab07 963d 8406 1b3d 9e72 57bd
000001f0: 084b 01bd 8102 bfbc a3cb 04bd 7823 a13c
00000200: c724 033c 4dcf 4bbc 41eb dc3d a8a2 14bc
00000210: 3097 f0bc 6894 c0bd f0d4 f7bc 8491 8e3d
00000220: 4cca c13d d5b1 133d 7193 d13c ffc8 9d3d
00000230: 780e 013d 6532 aabc 77e9 d03d 1c80 74bb
00000240: 5b5b 6b3d 695b 183c c748 fd3d 454e c0bc
00000250: 4cd5 ea3d 000d f93b b326 2abc 69fb 75bd
00000260: a7c2 773d 276d 923d bc2c a73d 52e4 4c3c
00000270: 35f1 d43c b7d5 1a3d a136 b93d d832 8dbb
00000280: f63a 29bd cf3f 42bd 7945 02bd 0d2d a6bd
00000290: 4ce8 903d 0e94 8c3d 876d d2bb 652a 3b3d
000002a0: b45b 923d f7f3 7fbd 2c8a 22bd e9cc 403c
000002b0: 5e83 d43d 5b32 843d 10dc d9b9 06c5 8a3d
000002c0: 07ba d83c 7cd5 25bd a3a7 b7bb fda6 f3bc
000002d0: cf37 aabb f5d0 f93d 98b8 e9bd 8bc6 84bd
000002e0: 5abe 1cbd ca31 2bbc 9e4a 823d 458a 023b
000002f0: 007c 813d 4932 93bd bffd 863d 4fae 91bc
00000300: d7a9 c63d e9cd e93d f58a 2abd 97e1 d7bd
00000310: 764e e83d 00e5 253c 8caa b13d 75fa 10bc
00000320: c306 5b3d ed3e 973d 8db3 55bd 72c1 013c
00000330: 6d05 e63d aba7 84bd a6b9 b7bd 5292 98bd
00000340: 4b83 ed3d d065 383d 5461 d6bd b8d1 e63d
00000350: 58bc 8e3d c6b8 b63c 344c 99bd 7005 54bd
00000360: d32c 003d 8f35 8b3b 309a 003e 21d6 d1bc
00000370: 1bd6 62bc cb65 cabb 97ef 77bd 986b 2e3d
00000380: 441a a6bb f75d d93c 6b70 763d c7b7 47bd
00000390: eb8d 0e3d 8929 2e3e 3a4e cfbc c314 c3bc
000003a0: 98f5 a73d 7f02 72bd 6efb 133e a7d1 483d
000003b0: 9110 9b3c 58a3 4a3d 35f6 0e3d aeb8 1c3e
000003c0: 242b 81bd 5b0e ff3d e2e2 3abd 980d acbc
000003d0: 5ff0 1dbd 41b9 0a3c f9cf 8abc 1e55 eebd
000003e0: 3e9b aa3c 569b ad3d b87f 8b3c c2ec 00bd
000003f0: d655 2e3d a2b7 1cbd ced3 ffbc 1329 57bd
0.093547724 0.07303545 0.029185344 0.121954896 0.13269833 -0.05722283 -0.0208658 -0.07453934
0.022423627 0.0434857 -0.049789585 0.13946316 -0.08191358 0.020784149 0.049726184 -0.03399094
0.02254937 0.01927588 0.051318146 0.090455964 0.03318117 0.0022608931 -0.018827436 0.00039388877
0.027095785 -0.056718927 0.07655217 0.117498934 0.08423385 -0.016266173 -0.012964385 -0.017313149
0.02891958 0.090462774 0.07761852 0.10291 -0.008900861 0.032420017 0.1310793 -0.020561147
0.08083795 0.1274879 -0.019613415 0.1174303 0.11228512 -0.025540732 0.05411469 0.11077875
0.12517166 -0.026704462 -0.047834575 0.0041268114 -0.03861877 -0.038381 -0.025617432 0.0042006974
0.07453251 -0.06424391 0.099951796 -0.039250545 0.049962055 -0.039537407 0.037791878 -0.037319716
-0.015885036 0.06716609 0.09795799 -0.02809967 0.1017666 0.08363293 -0.05415448 0.14147319
0.013674777 -0.03727608 -0.07276973 -0.04024205 0.12478529 0.016294584 -0.0830879 -0.077421755
0.005339306 -0.012245193 0.1264879 -0.04097828 0.09697505 0.10303636 0.035260703 0.08698688
0.049419563 0.014649391 0.104522504 -0.0059179114 0.11765492 0.06781054 0.110311165 0.0020835097
0.05160222 -0.07517325 0.013675671 0.059886012 -0.04671305 0.07043203 0.004280462 0.023631234
0.07042701 0.05932124 -0.02423023 0.016181024 -0.0007736347 0.0628038 -0.00074077456 -0.013020345
0.0076517463 -0.008788562 0.01726709 0.104126476 -0.07348675 0.051877614 -0.013606538 0.004908863
-0.05340001 0.07325681 0.03784801 -0.05259954 -0.031565696 -0.023316624 -0.032420766 0.019670233
0.008004374 -0.012439561 0.107870586 -0.009071983 -0.029368967 -0.09403306 -0.030252904 0.06961349
0.09462413 0.036058266 0.025583 0.077043526 0.03150794 -0.020775983 0.1020078 -0.0037307804
0.05746017 0.009299138 0.12367397 -0.023474822 0.114664644 0.0076004267 -0.010385203 -0.060054217
0.06048837 0.071497254 0.08162829 0.012505608 0.025993923 0.03780147 0.09043623 -0.0043090396
-0.041315995 -0.047424134 -0.031804536 -0.081140615 0.07075557 0.06864177 -0.006421748 0.045694727
0.07146397 -0.062488522 -0.039682552 0.011767604 0.10376619 0.06454917 -0.00041553425 0.067758605
0.026455892 -0.040486798 -0.0056047007 -0.029742712 -0.005194641 0.121980585 -0.114121616 -0.064831816
-0.03826747 -0.010448882 0.06361888 0.001991884 0.06322479 -0.071873255 0.06591367 -0.017783312
0.09700363 0.11416227 -0.041636426 -0.10541075 0.1134309 0.010125399 0.08675107 -0.008848776
0.053473245 0.07385049 -0.052173186 0.007919656 0.11231504 -0.064772926 -0.089709565 -0.074497834
0.11597308 0.04501897 -0.104677826 0.112704694 0.069695175 0.022304904 -0.07485238 -0.051762998
0.031292748 0.004248328 0.12558818 -0.0256148 -0.013844992 -0.0061766854 -0.060531225 0.04258308
-0.005069049 0.026534064 0.060165804 -0.048759248 0.034803312 0.17008032 -0.025305856 -0.02381361
0.0820114 -0.05908441 0.14451382 0.049028065 0.018928798 0.049472183 0.03490277 0.15304825
-0.063070565 0.1245391 -0.04562653 -0.021002576 -0.038559314 0.00846702 -0.016944872 -0.116373286
0.020825978 0.084768936 0.017028674 -0.03147579 0.04256233 -0.038261063 -0.031228926 -0.052529406

fc3.weight f4 [64, 256]
00000000: f624 693c 88ce adbd 104f 813d c8e1 623d
00000010: 7ccf 91bd ffc0 c3bd 829b 403d babc 1abc
00000020: bed1 943c fcb2 b6bc 7da1 02be c008 06be
00000030: 09ee 9f3d e995 a53c 7795 8dbd ddb3 d63c
00000040: a29d d43d b0b0 cfbd 4287 053e bb61 d43d
00000050: 7de6 7cbc 8208 24bc 9ea3 cbbd 8a11 baba
00000060: 3af9 1c3c 5a35 46bd f0b5 9fbc ca37 023d
00000070: 3dc5 aa3c f872 ae3c 2e9f 78bd 7ed9 f1bd
00000080: 4167 d7bd 38d3 2ebd fa01 483d 30f1 92ba
00000090: 022c 84bd 8f2b 793d 9850 c238 b37e 933d
000000a0: acbd c73d 4738 1dbd b9ec ca3d 009c 6fbc
000000b0: 19b9 bfbd e141 f1bd b350 b8bb 8300 5a3d
000000c0: 9795 993d 986a afbd f22e e8bc abcb 303c
000000d0: 62bb 5bbd c6a4 f63d 1687 94bd 0015 ca3c
000000e0: 133d 0d3d 0282 a73c ef70 aa3d 3b0f 6a3d
000000f0: 969b 5cbd 6676 dabd 8333 b43d 4685 493d
00000100: 33cf 773d bfd3 b9bc 6556 bd3d 3613 3cbd
00000110: ed1f dbbc 922f b73d 20f8 233e 2088 8abc
00000120: 33aa b3bc 8032 223e d7d9 cd3d c293 bcbd
00000130: d1bb 353d 7761 2d3c fc82 e43c c72b 873d
00000140: 0ff4 f53d 601a d3bc 0615 83bd f8b7 803c
00000150: 218e a03c cbfc 373d c647 97bd d4e5 c5bc
00000160: a35c 8e3d 89e4 b9bd 9f36 853d 6cd3 063e
00000170: e660 993c 1003 d23d 26df df3c c46b cfbd
00000180: 3d84 543d 4c3b 053b 4d6c 0bbe 97c1 1f3d
00000190: aa51 ca3d f658 8abc d9cc 003e 82ae cfbd
000001a0: 28d7 d33c 2901 7a3d 4e19 1abe ff96 72bd
000001b0: 3a12 02bc e60d 8c3b ef75 f6bd 991b f03d
000001c0: 5a2d 0b3e 77b1 903d 248f c23d d09d 0c3d
000001d0: 2cd3 4b3d ff4e bbbc b31f 02bd d7a0 0dbd
000001e0: 172f 813c ec80 be3d e130 70bd d4aa 4bbd
000001f0: 7e42 adba d1c9 a93d 7461 24bc dd7e 88bd
00000200: 5b96 2a3d 706b c43c 02ae 963c 4537 1f3c
00000210: 0082 4fba 8048 c1bc 5ff5 c93d 1aec 2f3c
00000220: 7eb6 c53d 8fe1 b93d a241 623d 053a d3bc
00000230: 6a44 babd 0e8d 71bd 2f49 f6bc a323 023e
00000240: a637 543d b975 5fbd 67e2 64bd f0ef 1e3e
00000250: 289f ffbc 9c08 43bb 047e ef3c a452 cc3d
00000260: 89d4 7a3d 57df b6bb 0b83 30bd 32be 343c
00000270: 1451 74bd 4b47 af3d 26eb 623c ce3d 0a3e
00000280: 00a2 d83c 5c15 0e3e c3c8 32bb 939a 693d
00000290: 117f 73bc 143c abbd e56f ffbc a714 f53d
000002a0: 32b0 4b3d 89aa 913d c0f0 3dbb 1581 443d
000002b0: 9f9e 1a3c d80a ed3c b8a4 2cbc e496 733d
000002c0: d0c8 0cbe c5d9 513d 4ac5 bd3d a36d 85bc
000002d0: e9d7 f03d 00ee 023e ee20 d03d 0239 943c
000002e0: 5ff5 87bc 3422 b43c 70c0 e73d 1177 643d
000002f0: d971 03bd 18ef 17bd ac96 04be 6393 0d3e
00000300: ab68 153c 055e 3f3d f174 473d 4e97 c5bc
00000310: 73d6 8dbd 69d4 603d 665b cd3d 2ff3 383d
00000320: f9f7 663d 90ba 393d f588 82bc 942b 683d
00000330: 510e 0bbd 1c28 123d b3af 0e3e 5615 473d
00000340: 1e05 17bd 409c 0e3d ce0a 3c3d 5af9 a5bd
00000350: a0ad d4bd 0238 573c 5d42 b9bd d3f0 8ebd
00000360: c250 183d de62 8b3d 9ae1 eabc 5d2b be3d
00000370: 7a95 213d 8f26 6dbd fd3b 963a 67f5 933c
00000380: 315f 68bd 1d68 fe3d ad14 103e e18b 913b
00000390: 1437 51bd c2ae 0ebe e350 ea3b e503 e63d
000003a0: 57f4 ccbd 96ba 54bb f034 9bbd 37de 04bd
000003b0: 304e 3ebc cdac f6bd 1d26 253d f8fc 973d
000003c0: 0739 263d c636 8dbd 7e4c 823d c711 aabc
000003d0: e9e6 803d 749f dc3d c61c ac3d 2ce2 fdba
000003e0: 9678 a93d 79b2 7b3d d32c 893d 478c 683b
000003f0: 0811 053e b9fa 103d 95df 99bc 7139 903d
0.014230004 -0.08486658 0.06313908 0.055391103 -0.07119653 -0.095582955 0.047023304 -0.00944441
0.01816642 -0.022302143 -0.12756915 -0.13089275 0.078090735 0.020213084 -0.06913274 0.026208812
0.103816286 -0.10141122 0.13039878 0.10370203 -0.015435812 -0.010011794 -0.09943317 -0.0014195901
0.009580905 -0.048390724 -0.019495934 0.031791486 0.020846004 0.021295056 -0.06069868 -0.118090615
-0.10517741 -0.042681903 0.04883001 -0.0011210795 -0.06453706 0.060832556 9.2656526e-05 0.072019
0.09752974 -0.03838375 0.099084325 -0.014624596 -0.093614765 -0.117801435 -0.0056248545 0.053223144
0.07499235 -0.08565253 -0.028342698 0.010790746 -0.0536455 0.12043147 -0.07252328 0.024668217
0.034482073 0.020447735 0.083223216 0.05714343 -0.053859316 -0.10667114 0.087988876 0.049199365
0.060500335 -0.022683976 0.09244994 -0.04591676 -0.026748622 0.0894462 0.16012621 -0.016910613
-0.021931743 0.15839577 0.10051315 -0.0920787 0.04436857 0.010582319 0.02789449 0.06600147
0.12009441 -0.025769413 -0.06400494 0.015712723 0.019599022 0.044918817 -0.073867366 -0.024157442
0.06951263 -0.09076793 0.06504559 0.13166589 0.018722963 0.102544904 0.027328085 -0.101279765
0.051883925 0.0020329533 -0.13615532 0.03900298 0.098788574 -0.016888123 0.12578143 -0.101407066
0.02585943 0.061036263 -0.15048715 -0.059226032 -0.007938916 0.0042741178 -0.12034213 0.11724014
0.13591519 0.07065099 0.09499958 0.03433019 0.049761936 -0.022864817 -0.031768512 -0.034577217
0.015769524 0.09301934 -0.058640365 -0.04972346 -0.0013218669 0.082904465 -0.010033 -0.06664822
0.041647296 0.023977011 0.01839352 0.009717767 -0.0007915795 -0.023594141 0.09861254 0.010737443
0.09653948 0.09076225 0.055238374 -0.025784502 -0.0909508 -0.05897241 -0.030064194 0.12708907
0.051810883 -0.05455563 -0.055879977 0.15521216 -0.031203821 -0.002975977 0.029234894 0.099767
0.061237846 -0.0055808234 -0.043093722 0.011031674 -0.059647635 0.0855852 0.013850009 0.13500139
0.026444435 0.13875335 -0.0027280308 0.05703218 -0.014861838 -0.08361068 -0.031181285 0.1196683
0.04972858 0.07112605 -0.002898261 0.047974665 0.009437232 0.028935835 -0.010537319 0.059470072
-0.13748479 0.05123307 0.092661455 -0.01628763 0.117599316 0.12786102 0.10162531 0.01809359
-0.016596494 0.021988966 0.113160014 0.055777613 -0.032090995 -0.037093252 -0.12948102 0.13825755
0.009119193 0.046720523 0.04869551 -0.02412 -0.069256686 0.05489007 0.100271985 0.045153793
0.05638883 0.045343935 -0.015934447 0.056682184 -0.0339492 0.035682783 0.13934211 0.048604332
-0.036870115 0.03481698 0.04590874 -0.08104201 -0.10384679 0.013135912 -0.09045861 -0.06979527
0.03718639 0.06805967 -0.028672028 0.09285615 0.039449193 -0.0578981 0.001146197 0.018061353
-0.056731407 0.12422202 0.14070387 0.0044417237 -0.051077917 -0.13933852 0.0071507557 0.112312116
-0.100075416 -0.0032459847 -0.075784564 -0.032438483 -0.011615321 -0.12044678 0.04031955 0.07421297
0.04058173 -0.06895213 0.06362246 -0.02076043 0.062940426 0.10772601 0.084039256 -0.0019369773
0.08274953 0.0614495 0.06698003 0.0035484002 0.12994778 0.035395358 -0.01878337 0.07042206

fc3.bias f4 [64]
00000000: 242d 543c 9459 07bd bb95 163d 9f7c 373d
00000010: 33ce 203d c907 aa3c 5590 233d 9253 fbbc
00000020: 78e9 813c 6c89 bcbb 3606 b5bc 2853 03bd
00000030: a49c 623d e212 73bd 5853 ef3c 11ad 473d
00000040: 3da4 07bc 7c0b c93d 1557 58bd fddb 453c
00000050: d6ed 9d3d 71a9 343d 4710 9a3d 4fff 8eb9
00000060: 2891 fbbc b2d8 933c 35af d43c 5da4 a1bc
00000070: ddd9 d43d 6ee9 8bbd 1fd6 81bd d656 9cbc
00000080: d595 f5bc e573 31bd 76e8 ac3d 2ea0 84bc
00000090: 4f81 82bd d13d 4c3d dd06 883b 32e0 d93c
000000a0: 2c16 803d 0c4a bb3b 8850 403d eb80 d9bc
000000b0: d43c d53d 4163 d43c 8070 07bd 7e63 413d
000000c0: c5ee 9aba d011 183d cf24 bebc c388 eb3c
000000d0: ef68 2c3d ff5a 9bbb 3a07 28bc 76d3 8e3c
000000e0: 9d1f 9f3c 8988 3abd 0904 a6bc 0ded fd3c
000000f0: 17bb 43bd 572d f93c 8bd4 dbbb 84de 73bd
0.0129502155 -0.033044413 0.036763888 0.044796582 0.039259147 0.020755665 0.039932568 -0.030679498
0.015858397 -0.0057536867 -0.022097688 -0.032061726 0.055325165 -0.05934418 0.029214546 0.048749033
-0.008278904 0.098166436 -0.052817423 0.012076375 0.07711379 0.044106904 0.07522636 -0.0002727457
-0.030708864 0.018047664 0.025962451 -0.019731695 0.103931166 -0.068316326 -0.063396685 -0.019084375
-0.029978672 -0.043323416 0.08442776 -0.01618966 -0.0637232 0.04986364 0.004151209 0.026596162
0.06254229 0.005715614 0.0469518 -0.02655073 0.10411993 0.025926234 -0.033066273 0.047214024
-0.0011820426 0.037126362 -0.023210911 0.028751737 0.04209226 -0.004741072 -0.010255629 0.017434817
0.019424254 -0.045540366 -0.020265596 0.030996824 -0.047785845 0.030417128 -0.0067086867 -0.05953838

fc4.weight f4 [8, 64]
00000000: f5be bd3d a067 5dbc da0e 46bd efdc 82bd
00000010: 5048 133d 435a f9bd f2e6 bebd 1680 043e
00000020: e422 d93d e690 623d 45c9 02be 92df 173e
00000030: b3fe 78bd 56c7 1b3c c0e4 37be a739 bb3d
00000040: b01c f4bc 246f 203d 6124 d33d 9c8f de3d
00000050: 7b52 163e 6150 2bbe 3f1e a3bc 4aba 2b3e
00000060: c2d0 163e da23 c23d 0f28 03be 0ca2 153e
00000070: 7868 eabc 0ffc f9bb d254 d5bd a578 143e
00000080: cda6 66be e306 14be 66ff 3d3e 1835 c9bd
00000090: 6bbf 00be 3026 243e 7134 94bd 184f 833d
000000a0: 41b0 b6bb 047b 22be 7bca e93d c11a 1abe
000000b0: c7cc b13d 1d66 263d 907f 103e 8169 1b3e
000000c0: ea36 bc3c da5d eabd 9101 eebd c0b7 f33d
000000d0: 6029 92bd e978 e5bd c74b 0d3e 20b8 8cbd
000000e0: 0616 01be 775e b2bd dc8c 55bd 7b3d 08be
000000f0: 248b 0f3e 90b1 8c3d 8d3f 2c3c eeb5 82bd
00000100: 9290 353e 24e8 05bd 3dda 403d eb32 433d
00000110: e42d 44be 4adb a6bd 8d42 db3d 2ab6 32be
00000120: 10be f8bd a982 8abd dbcf 023e 44dc 343e
00000130: bbaa b23d 8442 4f3d 3775 423e 1fe3 723d
00000140: 43b8 d13d dd9b 0fbe 223b f03d a75c 503d
00000150: 68a6 88bd bc6e 02be d129 48be 62fe fa3c
00000160: 6c4b 783c 5be4 3d3e bc9e eebd b921 0c3e
00000170: 0640 40be 6c26 163e 2120 cebc ba01 d0bd
00000180: 53b4 0bbe 0025 25bc 6861 8abd df69 d73d
00000190: 9d12 0f3e 6d0a 2d3e 34de 30bc 3b73 fd3d
000001a0: 187c 203e f241 d7bd e1f9 1a3e ba2a cf3d
000001b0: 8667 f8bd e64c 43ba 6080 c3bd f76d 70be
000001c0: 8955 43be 31f5 ea3d c76b cbbd 4c38 233e
000001d0: 8db6 fc3d 5a12 17bb 2d78 2d3d ec17 d6bb
000001e0: 111a dfbd 6b40 a63d 7ee2 70bd 8dbc d5bd
000001f0: 70ff 16be 1f05 113e 6884 25bd f46a a9bd
00000200: 94bd 0c3e 3e7b d03d 9ee8 d93d f3a8 eebd
00000210: c6a4 4abe ce70 c43a 9467 b03d 82c4 083e
00000220: a41f 5dbd b40e c2bc 58bb 13be 236d cb3d
00000230: a6da 2abe 3f27 703d f82c 1c3e 9315 17be
00000240: 9743 413d deb0 f4bd 7871 cebd 3a70 05be
00000250: e4d3 8dbc 7e7d edbc 18f6 f93b 29a5 ad3d
00000260: f1da 36be 35e1 0c3d 09a7 973d 7e49 52be
00000270: a0ce 493e c485 97bd 4d05 f13d 8211 6cbe
00000280: 4b64 d13d 579c 1c3e ab53 e33d b369 b5bd
00000290: 60ac 2dbe fa62 713d 9070 1ebc 0403 fbbd
000002a0: 8d20 5bbe 4dfb 963d 9478 b5bc 4e68 c33b
000002b0: f29b b53d 317b 223e e9b9 52bd 990d 463e
000002c0: a82d f3bb b6d3 23be 40a0 ab3c 6aea df3c
000002d0: b24a 2a3e 5c98 c5bd 0b34 3cbe 6d16 98bd
000002e0: fd4e 1b3e 0b9b 003e 14f9 67be dfee 1b3d
000002f0: 4bf2 00be 120a 0cbe a078 6bbe 2047 f5bd
00000300: 1261 213d c230 a5bd 0a46 90bb 0754 363e
00000310: fb50 823c 59e9 1bbc ec93 373d c7af 56bd
00000320: 6077 99bd 543d 0e3e 3544 3abd 7506 903c
00000330: f826 9abd df1e ce3d 832b 31be 53e0 123e
00000340: e990 f43d 4038 053e 300a 2e3d 225f 7fbd
00000350: 0831 203d aafc 23be d277 913d 21d6 52bd
00000360: 423e 3ebe 2070 4ebd 2c49 d5bd 202f f9bd
00000370: f341 12bd ede5 243c a996 0dbd 09c6 293e
00000380: df05 2abd d585 1fbe 5799 3ebe 4760 943d
00000390: 6481 35be 62b4 3c3d 3964 54be 6751 ca3d
000003a0: 6585 263e dec0 9dbb 7c79 6c3d 5168 b03d
000003b0: 1ba8 233e 609d 17be e516 c63c f832 08be
000003c0: 9a25 94bd 748a 2abe 5976 0fbd 3732 34be
000003d0: 6848 0c3e 63dc bf3c 92af 463d ab20 ca3c
000003e0: f894 f1bd 89ae 09be 1d72 21be cd16 f4bd
000003f0: 036f eabd 21a5 d73c 156e 4c3c 70a6 e4bd
0.09264938 -0.013513476 -0.048354007 -0.06389796 0.035957634 -0.12175419 -0.09321393 0.12939486
0.10602358 0.055313967 -0.1277209 0.14831379 -0.060789775 0.009507975 -0.17958355 0.09141856
-0.029798836 0.039168492 0.10309673 0.10867235 0.14679901 -0.16729881 -0.019911883 0.16770282
0.14728072 0.094794944 -0.1280825 0.14612597 -0.028614268 -0.0076289247 -0.10416569 0.14499147
-0.22524567 -0.14455752 0.18554458 -0.0982458 -0.1257302 0.16030192 -0.07236565 0.0641157
-0.0055752103 -0.15867239 0.11415573 -0.15049268 0.08681636 0.040624727 0.14111161 0.15176965
0.022975404 -0.11443682 -0.116213925 0.11900282 -0.07136798 -0.112047024 0.13798438 -0.068710566
-0.12606058 -0.08709424 -0.052136287 -0.13304703 0.14017922 0.06869805 0.010513199 -0.063823566
0.1773093 -0.03269209 0.04708313 0.04765598 -0.19158131 -0.08147295 0.10706053 -0.17452303
-0.121456265 -0.06763203 0.12774603 0.1766215 0.087239705 0.050600544 0.18990026 0.05929863
0.10240223 -0.14024301 0.11730029 0.05086961 -0.066723645 -0.12737554 -0.19547202 0.030638877
0.015154701 0.18544142 -0.1165137 0.13684739 -0.18774423 0.14663094 -0.025161805 -0.10156579
-0.13643007 -0.010079622 -0.0675686 0.1051824 0.13971944 0.16898508 -0.010795165 0.12375494
0.15672338 -0.10510625 0.15134384 0.10115571 -0.121291205 -0.00074501184 -0.0954597 -0.23479448
-0.19075598 0.11472548 -0.09932666 0.15939444 0.12339506 -0.002305171 0.042350937 -0.0065336134
-0.10893644 0.081177555 -0.05880975 -0.10436354 -0.14745879 0.1416211 -0.040409476 -0.08272353
0.13744193 0.101797566 0.10640071 -0.11653318 -0.19789419 0.0014987232 0.08613506 0.13356212
-0.053985253 -0.023688652 -0.14426935 0.099329256 -0.1668497 0.058631178 0.15251529 -0.14754324
0.0471836 -0.11947797 -0.10080236 -0.13031092 -0.017312951 -0.028990503 0.0076282136 0.084787674
-0.17856957 0.03439446 0.07404906 -0.20535848 0.19707727 -0.07398561 0.11768589 -0.23053554
0.102242075 0.15294014 0.11099943 -0.08858051 -0.16960287 0.058932282 -0.009670392 -0.122564346
-0.21399136 0.073721506 -0.022152223 0.005963362 0.08867635 0.15867306 -0.05144683 0.19341125
-0.007421214 -0.1599873 0.020950437 0.027333457 0.16630057 -0.09648201 -0.18379228 -0.074261524
0.1516685 0.12559144 -0.2265361 0.038069602 -0.12592427 -0.13675717 -0.22995234 -0.11976457
0.039399214 -0.080659404 -0.0044028806 0.17805491 0.015907755 -0.009516084 0.044818804 -0.052413728
-0.07493472 0.13890582 -0.045475204 0.017581204 -0.07526964 0.10064482 -0.17301755 0.14343385
0.11941702 0.13009739 0.042490184 -0.062346585 0.03910926 -0.16014352 0.07102932 -0.05147374
-0.18578437 -0.0503999 -0.10414347 -0.121671915 -0.035707425 0.010064584 -0.03456751 0.1657945
-0.041509505 -0.15578397 -0.18613182 0.07244926 -0.1772514 0.046070464 -0.20741357 0.098788075
0.16261823 -0.0048142513 0.057733044 0.08613647 0.15982096 -0.14806128 0.024180839 -0.13300693
-0.072337344 -0.16654378 -0.035024974 -0.1759728 0.13699496 0.023420518 0.04850728 0.02467378
-0.11795992 -0.13445486 -0.15766187 -0.119184114 -0.11446955 0.026323857 0.0124774175 -0.11164558

fc4.bias f4 [8]
00000000: ac3b 5a3d 95ab b93d 3385 d0bd b01f d83d
00000010: d147 97bd c147 ffbc 9fb1 abbc acb4 d5bd
0.053279564 0.0906593 -0.10181656 0.10552919 -0.07386745 -0.031162145 -0.02095872 -0.10434851
